experiment1/model.pth (torch, 840541 bytes, 24 tensors)

0.weight f4 [64, 1, 3, 3]
0	0x3ef485fd	0.47758475
1	0xbf13890a	-0.5763098
2	0xbf08c6bb	-0.5342824
3	0x3f00fa5d	0.50382024
4	0xbe7afaf9	-0.24509801
5	0xbf253b15	-0.6454328
6	0x3f23184f	0.63708967
7	0xbea2ea2d	-0.31819287
8	0xbf245e38	-0.64206266
9	0xbd5a7180	-0.0533309
10	0x3dc3f8ec	0.095689625
11	0x3ecda7ca	0.40167075
12	0x3d23c6e6	0.039984606
13	0xbc3cd694	-0.011525769
14	0x3ea85aee	0.32881874
15	0x3e3de0fc	0.18542856
16	0xbe97d60a	-0.29655486
17	0xbec4a885	-0.3840982
18	0xbd9c628f	-0.07635986
19	0xbe160bc3	-0.14652924
20	0xbd12b38d	-0.035815764
21	0xbda1d645	-0.07902197
22	0xbe155144	-0.14581782
23	0x3e6780a6	0.22607669
24	0xbddf025d	-0.10889123
25	0xbe071f1d	-0.13195463
26	0xbeab13fb	-0.3341368
27	0xbf1ac469	-0.6045595
28	0xbf13823b	-0.5762059
29	0xbe982cee	-0.2972178
30	0xbc5fd33a	-0.0136612
31	0x3e91f044	0.2850362
32	0xbe04e442	-0.12977698
33	0x3f0a8b3a	0.5411869
34	0x3e480d42	0.19536307
35	0xbe758de7	-0.23979913
36	0x3c14a1fc	0.009071823
37	0x3eb13205	0.34608474
38	0x3f1ba151	0.60793024
39	0xbf0adec2	-0.5424615
40	0xbeb433d1	-0.35195783
41	0x3f15029e	0.5820712
42	0xbf143430	-0.5789213
43	0xbe3b6d0e	-0.1830332
44	0x3cf8cf00	0.030372143
45	0x3e08741b	0.1332554
46	0xbe24ec1e	-0.16105697
47	0xbf57fea9	-0.84372956
48	0x3e445fac	0.19177121
49	0x3f585987	0.8451161
50	0xbe6e76bb	-0.2328748
51	0xbf21022b	-0.62893933
52	0x3ef43732	0.4769836
53	0x3e7e4b6f	0.24833463
54	0xbdb46ab1	-0.08809412
55	0xbef0fcf7	-0.47067997
56	0xbe58c1c1	-0.21167661
57	0x3e7d5af4	0.24741727
58	0xbeef747d	-0.4676856
59	0xbdfbb383	-0.122900985
60	0xbb1cae87	-0.0023907737
61	0xbed07e38	-0.40721297
62	0xbeed46cf	-0.46343085
63	0x3ea5328c	0.32265127
64	0x3ed45155	0.414683
65	0x3f21c289	0.6318746
66	0x3c132209	0.008980283
67	0x3e554a0b	0.20829026
68	0xbdfbd51f	-0.12296509
69	0xbe087fcb	-0.13329999
70	0xbf500b0a	-0.81266844
71	0xbf18a5d8	-0.5962806
72	0x3f050179	0.5195537
73	0x3e3d4942	0.18484977
74	0xbe7f8362	-0.24952462
75	0xbc3316f3	-0.0109307645
76	0xbea33a05	-0.31880203
77	0xbebfabc2	-0.37435728
78	0xbf03fd7a	-0.5155865
79	0xbe3e20b5	-0.18567164
80	0x3d386c02	0.04502488
81	0xbe962c20	-0.2933054
82	0x3d8a45c3	0.06751587
83	0x3dab8561	0.083750494
84	0xbe0cdc41	-0.13755895
85	0xbe9b061d	-0.30278102
86	0xbdeea843	-0.11653187
87	0xbd6bd25f	-0.057573672
88	0x3e15cdaa	0.14629236
89	0xbec2aa61	-0.38020614
90	0x3eaa8a37	0.33308575
91	0x3e82fcd3	0.25583515
92	0xbf25f05d	-0.6481989
93	0xbe18ecd2	-0.1493409
94	0x3ee73d14	0.45163786
95	0xbeb15b4d	-0.3463997
96	0x3e351868	0.17685091
97	0x3e76c1c1	0.24097349
98	0x3e8cfcbb	0.27536568
99	0xbf4aa8d2	-0.7916385
100	0x3e7758bc	0.24154943
101	0x3c310d1b	0.010806347
102	0xbd5c4764	-0.05377902
103	0x3f834a74	1.0257096
104	0xbe0c14f5	-0.1367987
105	0x3e22880e	0.15872213
106	0xbdf60a4d	-0.120136835
107	0xbf56373d	-0.83678037
108	0x3eae53e4	0.34048378
109	0x3e2843d6	0.16432127
110	0xbe872a96	-0.26399678
111	0x3e8fcdf6	0.28086823
112	0xbe84f1c8	-0.25965714
113	0xbeab6eff	-0.3348312
114	0xbeb7a1a1	-0.358655
115	0xbec00cc9	-0.37509754
116	0xbe4186d9	-0.18899097
117	0x3d1eb608	0.038747817
118	0x3c07a447	0.008278913
119	0x3c4cbe60	0.012496561
120	0x3f14e209	0.581574
121	0xbed97fa1	-0.42480186
122	0xbddbeb36	-0.10738222
123	0xbe347250	-0.17621732
124	0xbf369e5b	-0.7133538
125	0x3f40066c	0.750098
126	0x3deb4300	0.114873886
127	0xbdb236eb	-0.08701881
128	0xbe88a3a2	-0.26687342
129	0x3e1a82b9	0.15088929
130	0x3c8fd87e	0.017559286
131	0x3ef65b4e	0.48116535
132	0x3f21dad6	0.6322454
133	0x3e23e406	0.16004953
134	0x3ed63535	0.4183747
135	0xbeb49d80	-0.35276413
136	0xbebc0d92	-0.36729103
137	0xbed14d18	-0.4087913
138	0xbdeb83fb	-0.11499783
139	0x3d801acc	0.06255111
140	0xbbaa9c38	-0.005206611
141	0xbe2a8148	-0.1665088
142	0xbeb9453d	-0.36185637
143	0xbdc03eea	-0.09387
144	0xbecc6bef	-0.39926097
145	0xbdd15428	-0.1022113
146	0xbd713927	-0.058892395
147	0xbe8bb9b2	-0.27290112
148	0x3def8b79	0.11696524
149	0xbe9fad10	-0.31186724
150	0xbe9210ef	-0.28528544
151	0xbe8d2b9f	-0.27572343
152	0x3f077c77	0.52924293
153	0xbe6c0702	-0.23049548
154	0xbe9eed0d	-0.3104023
155	0xbea227c9	-0.3167098
156	0xbe738075	-0.23779471
157	0xbda527f1	-0.08064259
158	0x3f20b172	0.6277076
159	0x3e2112b0	0.15729785
160	0x3e65eb5b	0.22453062
161	0x3f16e3a2	0.5894109
162	0x3ea1cd58	0.31601977
163	0x3eb8f260	0.36122417
164	0x3e48b907	0.19601832
165	0x3e561b60	0.2090888
166	0xbf1783b9	-0.5918537
167	0xbef0f8f0	-0.47064924
168	0xbf0a9e25	-0.5414756
169	0xbe39fcd1	-0.18162848
170	0x3ec763d4	0.3894335
171	0xbe23af8c	-0.15984935
172	0xbe2a3354	-0.16621143
173	0xbe9de8b9	-0.30841616
174	0xbe30af0d	-0.17254277
175	0xbe3e3d07	-0.18577968
176	0xbe4f1717	-0.20223652
177	0xbddc5ae1	-0.10759521
178	0xbe85b733	-0.26116332
179	0x3ecbbc1e	0.3979196
180	0xbebcffc4	-0.36913884
181	0xbe5a0ac3	-0.21293168
182	0x3e1ab6b5	0.1510876
183	0xbe260172	-0.16211489
184	0xbeaf5a8e	-0.34248775
185	0x3e933bdb	0.28756604
186	0xbeee8350	-0.46584558
187	0xbe86a652	-0.26298767
188	0x3ecadeb4	0.39623034
189	0xbeda777e	-0.4266929
190	0x3de685ee	0.11256014
191	0x3efbcd3a	0.49180013
192	0x3e972028	0.2951672
193	0x3eb2d7c8	0.34930253
194	0x3edef632	0.43547207
195	0x3c1b3480	0.009472966
196	0xbe6c9f45	-0.23107632
197	0xbf241895	-0.6410001
198	0xbe81a9f1	-0.25324968
199	0xbdb6a928	-0.08918983
200	0x3e435236	0.1907433
201	0x3eee8e60	0.46592999
202	0x3e0279e7	0.12741815
203	0x3f0854cf	0.5325441
204	0xbe42cc83	-0.19023328
205	0xbf361adc	-0.71134734
206	0x3e743f11	0.23852183
207	0xbead1cc5	-0.33811012
208	0xbf27de24	-0.65573335
209	0xbf234582	-0.63777936
210	0xbf12eaa2	-0.5738927
211	0xbe3a70ce	-0.18207094
212	0xbd0c81af	-0.034303363
213	0xbd929428	-0.07157165
214	0x3f22325f	0.6335811
215	0x3f127afd	0.57218915
216	0xbe9f8a35	-0.3116013
217	0xbeb88255	-0.36036935
218	0x3e9b5370	0.30337095
219	0xbf15aa6e	-0.5846318
220	0x3b4629e3	0.0030237369
221	0x3f32053c	0.6953924
222	0x3eaea7b0	0.3411231
223	0x3ec2229d	0.37917033
224	0x3e7fff50	0.24999738
225	0x3f159754	0.58434033
226	0x3ea8916a	0.32923442
227	0x3e91f691	0.28508428
228	0xbd69a054	-0.057037666
229	0xbe83aa2d	-0.2571577
230	0xbf449916	-0.7679609
231	0xbf11345a	-0.5672051
232	0xbec10b8c	-0.37704122
233	0xbdd840ea	-0.105592564
234	0xbe599401	-0.21247865
235	0xbecbc3ea	-0.39797908
236	0x3e0137dd	0.12618966
237	0x3d8accf4	0.06777373
238	0x3e38a8f5	0.18033202
239	0x3e9a3ff8	0.3012693
240	0xbe87f3e1	-0.26553252
241	0x3e72e323	0.23719458
242	0x3ea8b8f4	0.32953608
243	0xbeaaf647	-0.3339102
244	0xbf30383c	-0.68835807
245	0x3e14751e	0.14497802
246	0xbf7da2a8	-0.9907632
247	0x3dc646ce	0.09681474
248	0x3f5ea819	0.86975247
249	0x3d125ad1	0.03573114
250	0x3ef9b04c	0.48767316
251	0x3f0101d7	0.5039343
252	0x3f32f9b3	0.6991226
253	0xbe6bfba8	-0.23045218
254	0x3e6483a0	0.22315836
255	0xbf40f1e8	-0.7536912

0.bias f4 [64]
0	0x3e4e715b	0.20160429
1	0x3e3e833a	0.18604746
2	0xbe12530f	-0.14289497
3	0xbd43e172	-0.047822423
4	0x3d54f2f0	0.051989496
5	0xbe5a3b14	-0.21311599
6	0x3d46f174	0.04857011
7	0xbd87b7b6	-0.06626837
8	0x3e14bf6b	0.14526145
9	0x3e447a7e	0.19187352
10	0xbe10fc08	-0.14158642
11	0xbdb4f514	-0.088358074
12	0x3e9bf75b	0.30462155
13	0x3e4b1d1f	0.19835328
14	0x3e30f6c9	0.17281641
15	0xbc862073	-0.016372895
16	0xbd832948	-0.06404358
17	0x3c83d7ca	0.016094107
18	0x3e641180	0.222723
19	0x3ea09563	0.31363973
20	0xbd2a17ac	-0.04152648
21	0x3d41fcb9	0.047360156
22	0x3e524e2d	0.20537634
23	0x3e9df0a5	0.3084766
24	0xbe6dae6a	-0.23211065
25	0x3d8738d1	0.06602634
26	0xbe39fc90	-0.18162751
27	0xbdadddfd	-0.084896065
28	0x3d9adbe7	0.07561474
29	0x3e078f62	0.1323829
30	0x3d2b139c	0.041766748
31	0xbe4e9aae	-0.20176193
32	0xbe130827	-0.14358579
33	0x3de8e52b	0.11371835
34	0xbe5d6943	-0.21622185
35	0x3e00c230	0.12574077
36	0xbe3266cc	-0.17422026
37	0x3c501d15	0.012702246
38	0x3e9d7d77	0.30759785
39	0xbd93bbe9	-0.072135754
40	0x3d5daf15	0.05412205
41	0x3ecf7b3f	0.40523717
42	0xbe935fc6	-0.28784007
43	0x3dd2589a	0.10270806
44	0xbe112b33	-0.14176635
45	0xbe9d9e62	-0.307849
46	0x3e602ff9	0.218933
47	0xbe3bf8eb	-0.18356673
48	0xbe5d22bc	-0.21595281
49	0xbd01d483	-0.031696808
50	0x3d963c4c	0.073357195
51	0x3dd6d430	0.1048969
52	0x3e577934	0.21042329
53	0x3e073c6e	0.13206646
54	0xbc0b92fc	-0.0085189305
55	0x3e14e878	0.14541805
56	0xbe6903c4	-0.22755343
57	0x3e71f764	0.23629528
58	0x3e31c2d2	0.17359474
59	0xbdc3a0be	-0.095521435
60	0x3ea83f4f	0.328608
61	0x3e82b06f	0.25525233
62	0x3dc92a80	0.09822559
63	0xbdc234d8	-0.094827354

1.weight f4 [64]
0	0x3fbf8628	1.4962816
1	0x3f739a8e	0.95157707
2	0x3f897edf	1.0741843
3	0x3f824f53	1.0180458
4	0x3f40f933	0.7538025
5	0x3f9d9cc7	1.231347
6	0x3f83330d	1.0249954
7	0x3f834a84	1.0257115
8	0x3faa6bf8	1.33142
9	0x3f898c67	1.0745972
10	0x3f2d5144	0.67702127
11	0x3fa43481	1.2828523
12	0x3f8f0422	1.1173136
13	0x3fa14da0	1.2601814
14	0x3f3b5c20	0.73187447
15	0x3f7e2721	0.99278456
16	0x3f8a25fd	1.0792843
17	0x3f3f549c	0.7473848
18	0x3f9d2851	1.2277929
19	0x3f7db0fc	0.9909818
20	0x3f97f3d0	1.1871281
21	0x3f6df60a	0.9295355
22	0x3f81ff52	1.0156043
23	0x3f99cb2d	1.2015129
24	0x3f4e929a	0.80692446
25	0x3f9d223f	1.2276076
26	0x3f55a833	0.83459777
27	0x3f6a26f3	0.9146568
28	0x3fadda7a	1.3582299
29	0x3f4f5dee	0.810027
30	0x3f884ce8	1.064847
31	0x3f1f3613	0.62191886
32	0x3f840ba6	1.0316055
33	0x3f3bf8b7	0.73426384
34	0x3f837184	1.0269017
35	0x3fabf198	1.3433104
36	0x3f932483	1.1495517
37	0x3f5b77b1	0.8572951
38	0x3f5e5e77	0.8686289
39	0x3f8a1650	1.0788059
40	0x3f28f91d	0.66005117
41	0x3f975427	1.1822556
42	0x3f1c43ac	0.6104076
43	0x3f963e23	1.1737713
44	0x3fab60bf	1.33889
45	0x3f8d0ec9	1.1020137
46	0x3fb0eafd	1.3821713
47	0x3f1d4cdd	0.6144541
48	0x3faae157	1.3350018
49	0x3f515cf0	0.81782436
50	0x3fae1500	1.3600159
51	0x3f8ae66d	1.085157
52	0x3f6ad51a	0.9173142
53	0x3f7ab576	0.9793314
54	0x3f6a594a	0.91542494
55	0x3f8fd172	1.1235793
56	0x3f8e948e	1.1139085
57	0x3f433f80	0.7626877
58	0x3f762b97	0.9616026
59	0x3f8c4cc4	1.0960927
60	0x3f5d5790	0.86461735
61	0x3fae64ea	1.3624547
62	0x3f7da2d5	0.99076587
63	0x3f98f7a5	1.1950575

1.bias f4 [64]
0	0xbeb19423	-0.34683332
1	0xbe2291a4	-0.1587587
2	0x3c7adf7f	0.015312075
3	0xbe80324d	-0.25038376
4	0xbeccd79c	-0.40008247
5	0xbdd110e6	-0.10208301
6	0xbb3e69c1	-0.0029054733
7	0x3ea41614	0.32048094
8	0xbdc0a1f6	-0.094058916
9	0xbe11fc07	-0.14256297
10	0xbe2b8e3d	-0.16753478
11	0xbe8f3d4a	-0.27976447
12	0xbdeac727	-0.114637665
13	0xbd0cc8d2	-0.034371205
14	0xbeb3f0be	-0.3514461
15	0xbccd197a	-0.025036562
16	0xbcd45124	-0.025917597
17	0xbe773682	-0.24141887
18	0xbdeaa36b	-0.11456951
19	0xbe6b68fc	-0.22989267
20	0xbdc9375d	-0.09825013
21	0xbe9505ad	-0.29105893
22	0xbd735d59	-0.059415195
23	0xbe9b6317	-0.30349037
24	0xbe93e11e	-0.28882688
25	0xbe45d241	-0.19318487
26	0x3dd97fd5	0.10620085
27	0xbea2d1f5	-0.3180081
28	0xbd84dd2f	-0.064875
29	0xbedb5a97	-0.42842552
30	0x3d87d65e	0.06632684
31	0xbf03b89d	-0.5145357
32	0x3d03abd8	0.032146305
33	0xbe9d31b2	-0.30701977
34	0xbdc4d207	-0.09610372
35	0xbe3d37a3	-0.18478255
36	0x3e07dffb	0.13269036
37	0xbe920d18	-0.28525615
38	0xbe501310	-0.20319772
39	0xbe1e47fe	-0.1545715
40	0xbef033ee	-0.4691462
41	0x3e06058e	0.13088056
42	0xbf04a637	-0.51816124
43	0x3bb51e2a	0.0055272775
44	0xbe05232e	-0.13001701
45	0xbe2bc34c	-0.16773719
46	0xbd5a61e7	-0.053316023
47	0xbeb78d6f	-0.35850093
48	0xbdcc44aa	-0.09974034
49	0xbeb5e0b2	-0.3552299
50	0x3dab40f0	0.08361995
51	0xbefd772b	-0.4950498
52	0xbe8a0600	-0.26957703
53	0xbdbd70f8	-0.09250063
54	0xbec787b7	-0.3897073
55	0xbd533fc6	-0.05157449
56	0x3d3bae66	0.045820616
57	0xbe934527	-0.28763697
58	0xbeaad9db	-0.33369336
59	0xbc81fe33	-0.015868282
60	0xbe664201	-0.22486116
61	0x3d65cc5f	0.056103107
62	0xbe5b3702	-0.21407703
63	0xbe59a9be	-0.21256158

3.weight f4 [64, 64, 4, 4]
0	0xbd284c27	-0.04108825
1	0xbd58f347	-0.052966382
2	0x3d2891cb	0.041154664
3	0x3ce7a45f	0.02827662
4	0xbd03e8d6	-0.03220447
5	0xbd398c0e	-0.045299582
6	0x3d1cb22d	0.03825586
7	0x3d4dd924	0.05025591
8	0xbc72357d	-0.01478326
9	0xbc4cd881	-0.01250279
10	0x3d3249b7	0.04352733
11	0x3d2e0921	0.042489175
12	0x3d50599e	0.050866716
13	0x3cbb171f	0.022838173
14	0x3cc81b93	0.02442721
15	0x3d98c87c	0.07460114
16	0x3c03c24b	0.0080419285
17	0xbc68276c	-0.014169555
18	0x3b7b1751	0.0038313458
19	0x3b2b2293	0.0026113137
20	0xbc7ceac5	-0.015436833
21	0xbcc5f2a5	-0.024163553
22	0xbd3ada9c	-0.04561864
23	0x399c78da	0.0002984468
24	0xbcc3fa74	-0.023923136
25	0xbd2c9c52	-0.042141266
26	0xbcbf50cf	-0.023353962
27	0x3c1b87c8	0.009492822
28	0xbb58bd2a	-0.0033071735
29	0xbc3708d7	-0.011171541
30	0xbdc4b517	-0.09604853
31	0x3bcc5fba	0.0062369974
32	0x3b10714e	0.002204019
33	0x3c21d83e	0.009878216
34	0x3d55294b	0.052041333
35	0x3cd20bc1	0.02564037
36	0x3d6d2820	0.057899594
37	0x3d10b80e	0.03533178
38	0x3b5fd167	0.0034151913
39	0xbcb014b8	-0.021494254
40	0x3d4e67ff	0.050392147
41	0xbbc1a770	-0.0059098527
42	0xbbb0e0ad	-0.005397877
43	0xba4480f1	-0.00074960204
44	0x3d1792cd	0.037005235
45	0x3cc9a979	0.024616944
46	0xbc367d11	-0.011138217
47	0x3d01eb99	0.031718824
48	0x3cce42e7	0.025178386
49	0xbd786d90	-0.060651362
50	0xbc006dcc	-0.007838678
51	0x3d7ee87c	0.062233433
52	0xbd260668	-0.040533453
53	0xbd74e578	-0.05978915
54	0xbc80e962	-0.015736286
55	0x3d67935a	0.05653701
56	0x3d089e53	0.033354115
57	0x3c39e448	0.01134593
58	0xb9da3961	-0.0004162295
59	0xbd886eed	-0.066617824
60	0x3e5c17ff	0.21493529
61	0x3d677af4	0.05651374
62	0xbd9c2b29	-0.0762542
63	0xbe14168e	-0.14461729
64	0xbd1310cf	-0.0359047
65	0xbd3f9e18	-0.04678163
66	0xbdf8e41a	-0.12152882
67	0xbd6d1156	-0.05787786
68	0xbd3e78a7	-0.04650178
69	0xbd2ae902	-0.04172612
70	0xbc94a8db	-0.018146923
71	0x3d993f83	0.07482817
72	0xbbbacdfe	-0.0057008257
73	0xbc62868d	-0.013826025
74	0x3d6e33c7	0.058154847
75	0x3e2c7c62	0.16844323
76	0x3c5d950f	0.013524308
77	0x3df09d49	0.1174875
78	0x3e018752	0.12649277
79	0x3e22576d	0.15853663
80	0xbcc2757d	-0.023737663
81	0xbdb04382	-0.08606626
82	0x3ce7d278	0.028298602
83	0x3dae23e4	0.08502939
84	0xbd5522be	-0.052035086
85	0xbd011512	-0.031514235
86	0x3d8a7f7a	0.067625955
87	0x3e107fc1	0.14111234
88	0x3c8206b1	0.015872331
89	0xbca4cca2	-0.020117108
90	0x3d41528e	0.04719787
91	0x3e26f785	0.16305359
92	0x3d7002f4	0.058596566
93	0xbbce09a3	-0.00628777
94	0xbc83c965	-0.016087243
95	0xb98e56e6	-0.00027149095
96	0x3cb5d0bd	0.02219426
97	0x3c9abf0f	0.018889932
98	0x3cd2a15e	0.025711711
99	0x3bfe2d41	0.0077568595
100	0x3d3555c2	0.04427124
101	0xbb78a23d	-0.0037938498
102	0x3d0c4e6e	0.034254484
103	0x3ca9ad7e	0.02071261
104	0x3c549501	0.012974978
105	0x3ce762fa	0.028245438
106	0x3d2db774	0.042411283
107	0x39d02787	0.00039702302
108	0xbb53fe07	-0.0032347457
109	0x3d3dd58e	0.04634624
110	0x3d4efd58	0.050534576
111	0x3d0e4546	0.034734033
112	0xbd465e14	-0.048429564
113	0xbd5d0a4a	-0.05396489
114	0xbd94c4e1	-0.07264114
115	0xba20d7b3	-0.00061356573
116	0xb93f6eea	-0.00018256498
117	0xbd2cfeea	-0.042235292
118	0xbbfec191	-0.0077745398
119	0x3d7ad26e	0.061235838
120	0xbda53021	-0.080658205
121	0xbddf4d1b	-0.109033786
122	0xbd21acbe	-0.03947138
123	0x3ba524ac	0.005039772
124	0xbda2d91c	-0.079515666
125	0xbdb8d720	-0.09025407
126	0xbd994d08	-0.07485396
127	0xbdfdb12a	-0.12387307
128	0xbd9d5672	-0.07682504
129	0x3ab92de6	0.0014128059
130	0xbaa25a8f	-0.0012386608
131	0x3c0238df	0.007948129
132	0x3badfb57	0.005309503
133	0x3cb20816	0.021732371
134	0x3a4887a4	0.00076496066
135	0xbb0e800d	-0.0021743805
136	0x3c85c35d	0.016328508
137	0xbc73e0db	-0.014885153
138	0xbc48ebdd	-0.012263265
139	0x3c86048a	0.016359586
140	0xbcade2ae	-0.021226253
141	0xbce65cf4	-0.028120495
142	0x3ce4d5a9	0.027933912
143	0x3b9d2bf6	0.0047965003
144	0x3c80a436	0.015703302
145	0x3d971dee	0.073787555
146	0x3d6e8673	0.05823369
147	0x3c48335b	0.012219275
148	0x3d9418f8	0.07231325
149	0x3d08eb91	0.03342778
150	0x3c83cfe4	0.01609034
151	0xbbd92c57	-0.0066276
152	0x3d0eb7af	0.034843143
153	0x3d90746b	0.07053455
154	0x3d72c9d1	0.0592745
155	0x3c751d53	0.014960605
156	0x3d27279f	0.04080927
157	0x3c4624ca	0.012093732
158	0x3d1d3e98	0.038389772
159	0xbc5ffc39	-0.013670974
160	0xbd0c9be3	-0.034328353
161	0xbc637ca8	-0.013884701
162	0xbcb977b8	-0.022640094
163	0x3d025200	0.031816483
164	0xbd27fdf5	-0.041013677
165	0xbc9078fc	-0.017635815
166	0x3d233126	0.039841793
167	0x3cf68502	0.03009272
168	0x3be6b232	0.0070402855
169	0xbc442f5a	-0.01197418
170	0x3b38ab78	0.0028178375
171	0xbb92e379	-0.0044826833
172	0x3cb80786	0.022464525
173	0xbc74532a	-0.014912406
174	0x3ca0f66e	0.019648757
175	0xbbf5bcd6	-0.0074993176
176	0x3ca86e5f	0.020560442
177	0x3baa37b6	0.0051946295
178	0x3d1fe2fa	0.03903482
179	0x3c2a8464	0.010407541
180	0x3c5f4f42	0.013629736
181	0x3a847064	0.0010104296
182	0x3d2cf467	0.042225268
183	0xbb11c508	-0.0022242684
184	0xbd7e8e2a	-0.062147297
185	0xbcdabe60	-0.026702106
186	0x3b3d4799	0.0028881787
187	0xbd00b81b	-0.031425577
188	0xb9c95cec	-0.0003840694
189	0xbbdb4dc4	-0.00669262
190	0xbcf2f8b1	-0.0296596
191	0xbd7756a5	-0.060385365
192	0xbca7503d	-0.020424003
193	0x3d28063e	0.041021578
194	0xbbecee9b	-0.0072305924
195	0xbb2112e2	-0.0024577905
196	0x3cc58d28	0.02411516
197	0x3c7d692a	0.015466968
198	0x3d0d24bb	0.034458857
199	0x3cefc081	0.029266598
200	0x3c81c5b0	0.015841335
201	0xbc8e893e	-0.017399427
202	0x3d0f2aaa	0.034952797
203	0x3ca74cb1	0.020422311
204	0x3b62e28c	0.0034619896
205	0xbd14664c	-0.03623037
206	0x3cf7965e	0.030223068
207	0x3c05357d	0.008130428
208	0xbcf7ffaf	-0.030273287
209	0x3ceeffa5	0.029174635
210	0xbc3e1017	-0.011600516
211	0x3c02e179	0.007988327
212	0x3d068aa8	0.032847077
213	0x3c474c32	0.0121641625
214	0xbce717ec	-0.028209649
215	0x3cff9d45	0.031202922
216	0xbd510323	-0.051028382
217	0xbd66b0d3	-0.056320976
218	0xbcc3d606	-0.023905765
219	0x3e0f2027	0.13977109
220	0xbd76ff47	-0.060302045
221	0x3c91cecd	0.017798806
222	0xbd0ecda8	-0.034864098
223	0x3ca365fa	0.019946087
224	0xbd5be027	-0.053680565
225	0xbd1dda1c	-0.038538083
226	0xbc95b4c2	-0.018274669
227	0xbd54ad32	-0.051922984
228	0xbcf5470d	-0.029941106
229	0xbcc4e60b	-0.024035474
230	0xbd69f18c	-0.057115123
231	0xbd7371c0	-0.059434652
232	0xbcada562	-0.021197025
233	0xbd3f5530	-0.0467121
234	0xbdb00bdf	-0.08596014
235	0xbd1a61ca	-0.037690915
236	0xbd31d25b	-0.0434135
237	0xbd936199	-0.0719635
238	0xbdf17e4b	-0.117916666
239	0xbd51f3a2	-0.051257737
240	0x3cc78c2f	0.024358837
241	0xbcad76a6	-0.02117474
242	0xbc182352	-0.009285765
243	0xbc500d5c	-0.012698498
244	0x3c9d0579	0.019167649
245	0x3c0309b9	0.0079979235
246	0x3c13c3e7	0.009018875
247	0x3ce64505	0.028109083
248	0xbc2e7ea5	-0.010650312
249	0x3ce1c922	0.027561728
250	0xbc9211bf	-0.017830728
251	0xbb7c62b2	-0.0038510975
252	0x3c4f5289	0.012653955
253	0xbb1877c7	-0.0023264752
254	0x3c48889e	0.012239603
255	0x3aa058b7	0.001223347

3.bias f4 [64]
0	0x3d3409ca	0.043954648
1	0xbd3a7098	-0.045517534
2	0x3cb63f5e	0.022247013
3	0xbc0ec5a5	-0.008714114
4	0xbdb408f2	-0.08790769
5	0x3d88888a	0.06666668
6	0x3da9a342	0.08283092
7	0xbdbf7357	-0.09348171
8	0xbd6e94bb	-0.05824731
9	0x3d80b84f	0.06285154
10	0x3c8a1e93	0.016860282
11	0x3b25e74c	0.0025314866
12	0xbc5180be	-0.012787042
13	0xbc6b3788	-0.014356501
14	0x3ce6765c	0.02813261
15	0xbdb0fa06	-0.08641438
16	0x3bf3b5bc	0.007437436
17	0xbc694475	-0.014237513
18	0x3d17b707	0.037039783
19	0xbd6040fe	-0.05474948
20	0xbd93ea01	-0.07222367
21	0x3d90d542	0.07071926
22	0xbd8586e3	-0.06519868
23	0x3cadc3cb	0.021211525
24	0x3d95e2c5	0.073186435
25	0xbc958425	-0.018251488
26	0x3cc35739	0.023845302
27	0xbd3126cc	-0.04324989
28	0x3d971ba3	0.07378318
29	0xbd6c955d	-0.05775963
30	0xbdbc54fa	-0.091958955
31	0x3db3fbaa	0.087882355
32	0x3d4771fe	0.048692696
33	0xbdbc403a	-0.09191938
34	0x3d592725	0.053015847
35	0xbcf43342	-0.029809598
36	0x3d430985	0.0476165
37	0xbd6aa168	-0.057282835
38	0xbd73d3d1	-0.059528176
39	0x3d092e74	0.033491567
40	0x3b8ce2f0	0.004299514
41	0x3a0b7922	0.00053204794
42	0xbcecffc0	-0.028930545
43	0xbb835f5e	-0.0040091714
44	0x3d3649d4	0.044504
45	0xbcb0e843	-0.021595126
46	0xbd2097e5	-0.039207358
47	0x3d9db81c	0.07701132
48	0x3d632607	0.055456188
49	0xbd7fa241	-0.062410597
50	0x3ce9fdf0	0.02856347
51	0xbc6edd95	-0.014579196
52	0xbd698d2b	-0.057019394
53	0x3d0752ca	0.03303794
54	0xbd81fe4c	-0.063473314
55	0x3d6c27b0	0.057655036
56	0xbcc79320	-0.024362147
57	0x3c6fab93	0.014628309
58	0xbd3d6ffb	-0.04624937
59	0x3d284b63	0.04108752
60	0x3d8957d5	0.06706206
61	0xbda8fed4	-0.082517296
62	0xbc676559	-0.014123284
63	0x3d3aaed9	0.045576904

4.weight f4 [64]
0	0x3fa2d812	1.272219
1	0x3f365b2f	0.71232885
2	0x3f7bbdbb	0.9833638
3	0x3f53e999	0.82778317
4	0x3f62af16	0.8854841
5	0x3f37ceb7	0.71799797
6	0x3eb89c07	0.3605654
7	0x3f81feb7	1.0155858
8	0x3f642b25	0.89128333
9	0x3edf8275	0.43654218
10	0x3ea6cffd	0.32580557
11	0x3f322f1f	0.6960315
12	0x3f5c0f9c	0.8596132
13	0x3f546071	0.8295966
14	0x3f272eaf	0.6530561
15	0x3f3c9f93	0.7368099
16	0x3f84055f	1.0314139
17	0x3f31faba	0.69523203
18	0x3f55655c	0.8335779
19	0x3f2d04ea	0.67585623
20	0x3f7502da	0.95707476
21	0x3f112f1d	0.56712514
22	0x3f68364c	0.9070785
23	0x3f12ad6c	0.5729587
24	0x3f673016	0.9030775
25	0x3f3cede4	0.7380049
26	0x3f14ba21	0.5809651
27	0x3efe8d43	0.4971715
28	0x3f192946	0.59828603
29	0x3f30e70d	0.69102556
30	0x3f510370	0.8164587
31	0x3efd55dd	0.4947957
32	0x3f12be7d	0.5732191
33	0x3f7fc37f	0.9990768
34	0x3f26e8dd	0.6519907
35	0x3f4213e8	0.75811625
36	0x3f2415c9	0.6409574
37	0x3f1eb91a	0.6200119
38	0x3f67d0db	0.90553063
39	0x3f5dc876	0.86634004
40	0x3f57b0a5	0.84253913
41	0x3f485b94	0.7826474
42	0x3f16941f	0.58819765
43	0x3f320532	0.6953918
44	0x3f80d4e7	1.0064973
45	0x3f585108	0.84498644
46	0x3f794e99	0.97385556
47	0x3f2cc489	0.6748739
48	0x3f452fe3	0.77026194
49	0x3f43c797	0.76476425
50	0x3f4e2910	0.80531406
51	0x3f50ffd6	0.81640375
52	0x3f0e7825	0.55652076
53	0x3ee0b2cb	0.43886408
54	0x3f805c34	1.0028138
55	0x3f5a58b6	0.8529161
56	0x3fbb1f6f	1.4618968
57	0x3f1b7619	0.6072708
58	0x3f39f598	0.7264037
59	0x3f38f503	0.7224886
60	0x3f3f2b39	0.7467533
61	0x3f04a5f3	0.5181572
62	0x3f4e5bec	0.8060901
63	0x3f6961ae	0.9116467

4.bias f4 [64]
0	0xbf9d1f19	-1.2275115
1	0xbea2595c	-0.317088
2	0xbf089ea7	-0.53367084
3	0xbf3b700e	-0.73217857
4	0xbeba6d27	-0.36411402
5	0xbf25d2a6	-0.6477455
6	0xbf01c309	-0.50688225
7	0xbd66f617	-0.056387033
8	0xbe2161ad	-0.15759917
9	0xbeef908d	-0.4678997
10	0xbdc437ce	-0.095809564
11	0xbf32ca80	-0.6984024
12	0xbf5b4ccf	-0.85664076
13	0xbe767c56	-0.24070868
14	0xbec42078	-0.38306022
15	0xbef34728	-0.47515225
16	0xbf34d1c1	-0.7063256
17	0xbeb00aad	-0.34383145
18	0xbedc5159	-0.43030813
19	0xbe45f94c	-0.1933338
20	0xbcba0a47	-0.022709979
21	0xbf637731	-0.88853747
22	0xbe75bf60	-0.23998785
23	0xbef98dca	-0.4874099
24	0xbf148341	-0.5801278
25	0xbf168538	-0.58797026
26	0xbf397ccc	-0.7245605
27	0xbf23e44b	-0.6402022
28	0xbee258c7	-0.44208357
29	0xbeea9b9d	-0.4582185
30	0xbedd1c5f	-0.43185708
31	0xbf57b73d	-0.84263974
32	0xbf2164c3	-0.63044375
33	0xbe4ff7b9	-0.20309342
34	0xbf709154	-0.93971753
35	0xbe16c0e4	-0.1472202
36	0xbe8d5bbe	-0.27609056
37	0xbefdf07e	-0.49597543
38	0xbea6ba0f	-0.32563826
39	0xbf8d5e4d	-1.1044403
40	0xbf062fed	-0.5241688
41	0xbf0c1494	-0.547189
42	0xbea45c73	-0.32101783
43	0xbf2a1770	-0.6644201
44	0xbf049e9d	-0.51804525
45	0xbeaf91b7	-0.3429086
46	0xbed7d72e	-0.42156357
47	0xbf44a2b0	-0.7681074
48	0xbedb0001	-0.4277344
49	0xbec12ce0	-0.3772955
50	0xbf0abd9f	-0.5419559
51	0xbed2ed3a	-0.41196615
52	0xbe9e5f55	-0.30932108
53	0xbed0579a	-0.40691835
54	0xbddb2229	-0.10699875
55	0xbf60c98e	-0.8780755
56	0xbf2dca02	-0.67886364
57	0xbf0f3e03	-0.55954
58	0xbf11c2f2	-0.5693809
59	0xbf2559f3	-0.64590377
60	0xbf856a8d	-1.0423142
61	0x3d23d799	0.04000053
62	0xbee7c1a5	-0.45264927
63	0xbf61cee9	-0.88206345

6.weight f4 [64, 64, 4, 4]
0	0xbcdb9d1a	-0.02680831
1	0x3ca8448f	0.020540504
2	0x3d89983e	0.06718491
3	0xbca0e855	-0.019642035
4	0xbdab589f	-0.083665125
5	0x3d5ecb7d	0.05439328
6	0x3d101517	0.035176363
7	0xbcb8849b	-0.022524169
8	0xbda044ab	-0.078255974
9	0x3d1a2447	0.037632253
10	0x3d6863ad	0.056735683
11	0x3ccc09a7	0.024906946
12	0x3cc9535f	0.024575887
13	0x3d809a30	0.06279409
14	0x3d3e4dd5	0.046460945
15	0xbca3df24	-0.020003863
16	0x3d45dd14	0.04830654
17	0xbd97243b	-0.07379957
18	0xbe234b43	-0.15946679
19	0xbdd7e7d6	-0.10542266
20	0xbd53f811	-0.051750246
21	0xbe1ff9d6	-0.15622649
22	0xbe080d60	-0.13286352
23	0xbdbcb13e	-0.09213494
24	0xbd66b8a1	-0.05632842
25	0xbdbf7679	-0.09348769
26	0xbe345e04	-0.17613989
27	0xbde3b328	-0.11118156
28	0xbc8c493d	-0.017124766
29	0xbd5ce825	-0.053932328
30	0xbd81d75b	-0.06339904
31	0xbde7f0be	-0.11325215
32	0x3c1d0218	0.009583019
33	0x3b9f70f9	0.0048657623
34	0x3d8ec64a	0.069714144
35	0xbba66f01	-0.0050791507
36	0x3c7b0677	0.015321366
37	0x3d726dc4	0.059186712
38	0x3d905ae8	0.07048589
39	0xbc1ee565	-0.009698247
40	0x3ccf5bcc	0.025312327
41	0x3c846666	0.016162109
42	0xbce02b57	-0.027364416
43	0xbd7c41a1	-0.061586026
44	0xbb2eca2d	-0.00266708
45	0x3cca1bb6	0.024671417
46	0xbd51105c	-0.051040992
47	0xbd3251d0	-0.043535054
48	0xbc9b10db	-0.018928936
49	0xbc694243	-0.014236989
50	0x3d114722	0.03546823
51	0x3d1b0283	0.037844192
52	0x3cfacab2	0.03061423
53	0x3d4001f1	0.04687685
54	0x3c472310	0.012154356
55	0xbccd38b0	-0.025051445
56	0x3da12fe9	0.07870466
57	0x3d5568e5	0.05210199
58	0x3d769366	0.060199164
59	0x3d59d478	0.05318114
60	0x3cedde07	0.029036535
61	0xbb2ef993	-0.002669905
62	0xbdacc55a	-0.08436079
63	0xbc8225e3	-0.015887206
64	0xbd0ac742	-0.033881433
65	0xbc20f463	-0.009823891
66	0xbd508419	-0.05090723
67	0xbdf38506	-0.118906066
68	0x3d3633a2	0.044482835
69	0xbcfaeda0	-0.030630887
70	0xbde6c3a7	-0.112677865
71	0xbd715683	-0.058920395
72	0x3d0437f0	0.03227991
73	0xbd8e5ceb	-0.069513164
74	0xbda9ea11	-0.08296598
75	0xbd691ea4	-0.056913987
76	0xbcc172c1	-0.02361429
77	0xbd339e26	-0.043851994
78	0xbda37a72	-0.07982339
79	0xbd7f4717	-0.062323656
80	0x3e0965a0	0.13417673
81	0x3da94e69	0.08266909
82	0xbc9896d1	-0.018626602
83	0x3cc217da	0.023693014
84	0xbceebb33	-0.029141998
85	0x3d215ada	0.039393283
86	0x3d98b1db	0.07455798
87	0x3c59c25f	0.013290971
88	0xbc8e1eec	-0.01734873
89	0x3d343024	0.043991223
90	0xbcc7eb0e	-0.024404075
91	0xbd2aa393	-0.041659903
92	0x3c9c08d1	0.019047173
93	0x3e008d29	0.12553848
94	0x3d152326	0.036410473
95	0xbc6ba0d2	-0.014381604
96	0x3d9ee1fe	0.07757948
97	0x3db15eb1	0.08660639
98	0x3c8e2a73	0.017354226
99	0x3da306f8	0.079603136
100	0x3d783861	0.060600642
101	0x3dad02cc	0.08447799
102	0x3d90fe24	0.070797235
103	0x3ce8b938	0.028408632
104	0x3de9863f	0.114025585
105	0x3dc25e7c	0.09490678
106	0x3cf88885	0.030338535
107	0xbd537781	-0.05162764
108	0x3dd92824	0.10603359
109	0x3d8d0310	0.0688535
110	0xbceeab55	-0.029134432
111	0xbd8b896c	-0.068133205
112	0xbd8b6760	-0.068068266
113	0xbdc70b83	-0.097189926
114	0x3cc28b8d	0.023748184
115	0x3c5b2a18	0.013376735
116	0xbdbb4d9d	-0.09145663
117	0xbb016e8b	-0.0019749727
118	0xbc8a0f7b	-0.016853085
119	0xbd6df77e	-0.058097355
120	0xbcff33a6	-0.031152558
121	0xbd98894b	-0.074480616
122	0xbdb77065	-0.089569844
123	0xbd974a74	-0.07387248
124	0xbd282923	-0.041054856
125	0xbda8afcb	-0.08236655
126	0xbdb81621	-0.08988596
127	0xbddc717b	-0.10763832
128	0xbd35edb2	-0.044416137
129	0xbd737421	-0.05943692
130	0x3c38b5a1	0.011273772
131	0x3d3e4ea7	0.046461727
132	0xbdacebe0	-0.08443427
133	0xbd85f6c7	-0.0654121
134	0xbcc01968	-0.023449615
135	0xbd037a74	-0.032099202
136	0xbcdb9049	-0.026802199
137	0xbcbd7527	-0.023127152
138	0x3be6ffdf	0.007049545
139	0xbd1a38d6	-0.03765186
140	0xbc8ca4af	-0.017168371
141	0xbd6c7bc6	-0.057735227
142	0xbd121003	-0.0356598
143	0xbda081c6	-0.07837252
144	0x3ce40295	0.027833262
145	0x3d4c0f59	0.049819324
146	0xbd2ab295	-0.041674215
147	0x3c5db24f	0.013531282
148	0x3d11aff9	0.03556821
149	0x3da44c66	0.08022384
150	0x3d6fe459	0.05856738
151	0x3bcea00d	0.0063057006
152	0x3e23fddc	0.16014808
153	0x3e2d887b	0.16946594
154	0x3db13e47	0.086544566
155	0xbd15433b	-0.03644107
156	0x3e232a9b	0.15934221
157	0x3e0be156	0.13660178
158	0xbc93fb3c	-0.018064134
159	0xbd7c536d	-0.061603
160	0x3cbe947c	0.023264162
161	0xbd8ebb93	-0.06969371
162	0xbdab7009	-0.083709784
163	0xbda4a089	-0.08038432
164	0x3c559d4d	0.013037992
165	0xbdb8ebf2	-0.09029378
166	0xbe163035	-0.14666827
167	0xbda9e108	-0.082948744
168	0xbd0b6cb8	-0.03403923
169	0xbe0287c5	-0.12747104
170	0xbda72f72	-0.08163346
171	0xbd37f3d5	-0.04491027
172	0xbd2d8a7d	-0.0423684
173	0xbcdd0500	-0.026979923
174	0x3be726a8	0.0070541687
175	0xbdac2909	-0.08406264
176	0x3cef533c	0.029214494
177	0xbb22071f	-0.0024723483
178	0xbc45f644	-0.01208264
179	0x3b78622b	0.003790031
180	0x3d77aeaa	0.060469307
181	0x3d9b17b9	0.07572884
182	0x3d674dd6	0.056470715
183	0x3c2af5f0	0.010434613
184	0x3d989bef	0.07451617
185	0x3d678e97	0.05653247
186	0x3d2fb376	0.042895757
187	0xbb6a97aa	-0.0035795965
188	0x3d9d8de2	0.076930776
189	0xbbd862ef	-0.0066035907
190	0xbdbc682f	-0.09199559
191	0xbdd84e50	-0.10561812
192	0x3c8d0be7	0.01721759
193	0xbd352bbd	-0.044231165
194	0xbdf940ea	-0.121705845
195	0xbd990726	-0.074720666
196	0x3d254a32	0.04035396
197	0xbd8ee59c	-0.06977388
198	0xbdcf02f6	-0.10107987
199	0xbdc6cc72	-0.097069636
200	0x3bf93858	0.0076055937
201	0x3b0bd80c	0.002133849
202	0x3b9b7064	0.0047436226
203	0x3e0974d5	0.13423474
204	0x3b8e8480	0.0043492913
205	0x3d71e912	0.059060164
206	0x3de28976	0.11061375
207	0x3e1f0843	0.15530495
208	0x3d1e6bd8	0.038677067
209	0x3cbda9db	0.023152282
210	0xbb4ed4c0	-0.0031559914
211	0xbce72b43	-0.028218871
212	0x3dc3c642	0.09559299
213	0xbcc5ec9f	-0.024160681
214	0xbd088c2c	-0.033336803
215	0xbc832268	-0.016007617
216	0xba183cd6	-0.0005807405
217	0xbd7b0e17	-0.061292734
218	0x3d3709d2	0.0446871
219	0x3ceb4633	0.028719997
220	0xbd6e9425	-0.05824675
221	0xbcd638c7	-0.02615012
222	0x3bdb5c63	0.006694363
223	0xbd1a332a	-0.03764645
224	0x3b806f1b	0.003919495
225	0xbd2d00f6	-0.042237245
226	0x3e0876c4	0.13326555
227	0xbc0691aa	-0.00821344
228	0x3d43b745	0.0477822
229	0x3da99189	0.08279712
230	0x3d4abf5d	0.049498904
231	0xbc387f4f	-0.0112608215
232	0x3cc1ade4	0.023642488
233	0x3d93a2b3	0.07208767
234	0xbce18c59	-0.027532743
235	0xbd8e1c25	-0.06938962
236	0x3dc53096	0.09628408
237	0x3c3a2e44	0.01136357
238	0xbd05d6d4	-0.03267558
239	0xbd79c72a	-0.060980953
240	0xbd86cfc5	-0.06582598
241	0xbd416ca4	-0.04722275
242	0xbd738fb4	-0.059463218
243	0xbd05e437	-0.032688346
244	0x3d1828a7	0.037148144
245	0xbe12996a	-0.14316335
246	0xbdaff49d	-0.08591578
247	0xbd272c56	-0.040813766
248	0xbdbd363d	-0.09238861
249	0xbdfb7661	-0.12278438
250	0x3ce4f470	0.027948588
251	0x3d28d6b9	0.0412204
252	0xbd5d37b7	-0.054008212
253	0xbd96a4d5	-0.07355658
254	0x3c54daf8	0.012991659
255	0x3d22603f	0.03964257

6.bias f4 [64]
0	0x3dd61b19	0.10454387
1	0xbe051c44	-0.12999064
2	0xbe1b5e08	-0.15172589
3	0x3e0dea37	0.13858877
4	0x3c57f2c2	0.013180437
5	0xbd8efea9	-0.06982166
6	0xbe900210	-0.28126574
7	0x3e70545a	0.23469678
8	0x3e8058ee	0.25067848
9	0xbe5ed969	-0.21762623
10	0xbc9e3fef	-0.019317595
11	0x3c038d81	0.008029343
12	0xbd81871f	-0.063246004
13	0x3dda733d	0.10666511
14	0xbead6268	-0.3386414
15	0x3ea93280	0.3304634
16	0x3e0ce69c	0.13759845
17	0xbe00dac2	-0.1258345
18	0xbe7ad9ee	-0.24497196
19	0x3e8bad54	0.27280676
20	0x3c637292	0.013882296
21	0xbcbc3280	-0.022973299
22	0xbdbbd0b5	-0.09170667
23	0x3dc587ce	0.09645043
24	0x3d9e532b	0.07730707
25	0xbda3ecd0	-0.08004153
26	0x3e3e9d27	0.18614636
27	0xbe275f3c	-0.16344923
28	0x3d6d3158	0.057908386
29	0xbd8d056c	-0.068858
30	0xbdb7f6fb	-0.08982655
31	0x3e06628a	0.13123527
32	0x3c256105	0.010093932
33	0xbc58184f	-0.013189389
34	0xbe1b3534	-0.15157014
35	0x3e263c38	0.16233909
36	0x3e2ce8bf	0.1688566
37	0xbe2c0d7c	-0.16802019
38	0xbd8772f9	-0.06613726
39	0x3d661685	0.05617382
40	0xbe3c228c	-0.18372554
41	0x3e17dd6c	0.1483056
42	0xbdf19770	-0.117964625
43	0x3dba8065	0.091065206
44	0x3c40e277	0.011772743
45	0xbc506d5c	-0.012721386
46	0xbd33eac7	-0.043925073
47	0x3d9338d1	0.07188571
48	0xbd897a83	-0.067128204
49	0x3d3c67dc	0.045997486
50	0x3da50753	0.080580376
51	0xbd9fdc6f	-0.07805716
52	0xbe0431fa	-0.1290969
53	0x3dc47ac4	0.09593728
54	0xbc8dc266	-0.01730461
55	0x3d326b70	0.04355949
56	0x3e41f935	0.18942721
57	0xbe46a6cc	-0.19399565
58	0x3e59050a	0.21193328
59	0xbe6eab82	-0.23307613
60	0x3c3543dd	0.011063543
61	0x3b7c881c	0.0038533276
62	0x3d79e0d7	0.06100544
63	0xbcf5b0de	-0.029991563

7.odefunc.norm1.weight f4 [64]
0	0x3f6d48b2	0.9268905
1	0x3f8daa29	1.1067554
2	0x3fa01acc	1.2508178
3	0x3f56f1a0	0.8396244
4	0x3f8f9d49	1.1219875
5	0x3faa0dbf	1.3285445
6	0x3f99ddeb	1.2020849
7	0x3f87ac27	1.0599412
8	0x3f8c72e1	1.0972558
9	0x3fa37b03	1.2771915
10	0x3fa58ac0	1.2932968
11	0x3f34e836	0.70666826
12	0x3fb94812	1.4475119
13	0x3f8b019d	1.0859867
14	0x3faec531	1.3653928
15	0x3f8d8935	1.1057497
16	0x3f471805	0.77771026
17	0x3fb9a317	1.4502896
18	0x3f9cd700	1.2253113
19	0x3f84783c	1.0349193
20	0x3f44cc21	0.76873976
21	0x3f82f5cb	1.023126
22	0x3f6b4303	0.91899127
23	0x3fa84c35	1.3148257
24	0x3f83bb0d	1.0291458
25	0x3fb66bb6	1.4251621
26	0x3f7b10c5	0.98072463
27	0x3faf7c99	1.3709899
28	0x3f7cfad3	0.9882023
29	0x3f86353c	1.0484996
30	0x3fad56d4	1.3542123
31	0x3f56adec	0.83859134
32	0x3f83adb5	1.0287386
33	0x3f0ae15e	0.54250133
34	0x3fa40a46	1.2815635
35	0x3f3e8a36	0.74429643
36	0x3f73675c	0.9507959
37	0x3fa675ce	1.3004701
38	0x3f9bbf75	1.2167803
39	0x3f46be9b	0.7763459
40	0x3fac7bea	1.3475316
41	0x3f8c75ca	1.0973446
42	0x3f9dcf89	1.232896
43	0x3f89515a	1.0727952
44	0x3fb0bb69	1.3807193
45	0x3f588924	0.8458426
46	0x3fa36734	1.276587
47	0x3f7261af	0.94680303
48	0x3fabed39	1.343177
49	0x3fac35db	1.3453935
50	0x3f9eb6de	1.2399557
51	0x3fb4fc39	1.4139472
52	0x3f1d0d9f	0.6134891
53	0x3f925b7a	1.1434166
54	0x3f8d64ab	1.1046346
55	0x3f7f325c	0.9968622
56	0x3f9fd5e9	1.2487155
57	0x3f8102db	1.0078996
58	0x3f8b089c	1.0862002
59	0x3fb97e07	1.4491585
60	0x3f702711	0.9380961
61	0x3f832fb3	1.0248932
62	0x3f9c25b5	1.2199007
63	0x3f914021	1.1347696

7.odefunc.norm1.bias f4 [64]
0	0xbeb0e6c1	-0.3455105
1	0xbf6fbbd1	-0.9364596
2	0xbee27434	-0.4422928
3	0xbf342d92	-0.70382035
4	0xbf4dfc24	-0.8046286
5	0xbd8d116a	-0.06888087
6	0xbec8ff3e	-0.39257234
7	0xbf385c57	-0.720159
8	0xbecd4bf8	-0.40097022
9	0xbf1748a8	-0.5909524
10	0xbd8b801d	-0.06811545
11	0xbf1a864e	-0.6036118
12	0xbcf65ccb	-0.030073544
13	0xbf5f5f67	-0.8725495
14	0x3d850973	0.06495943
15	0xbf49248d	-0.785714
16	0xbf13ce70	-0.57736874
17	0xbe88c627	-0.26713678
18	0xbeda5498	-0.42642665
19	0xbf014691	-0.504983
20	0xbf42e5a4	-0.76131654
21	0xbd776791	-0.060401503
22	0xbf82717a	-1.019088
23	0xbe806206	-0.25074786
24	0xbf6e80cf	-0.93165296
25	0xbf0713f8	-0.52764845
26	0xbf05d70a	-0.5228125
27	0xbf10f3d4	-0.5662205
28	0xbf288265	-0.65823966
29	0xbee07cbd	-0.43845168
30	0xbea9a7a6	-0.33135718
31	0xbf446bb4	-0.7672684
32	0xbd960cfc	-0.07326695
33	0xbf1f4bbd	-0.6222494
34	0xbe6d3fbd	-0.23168845
35	0xbf513114	-0.8171551
36	0xbed25a73	-0.41084632
37	0xbf06b6c3	-0.5262262
38	0xbef51859	-0.47870138
39	0xbf5db183	-0.86598986
40	0xbefe3210	-0.4964757
41	0xbf442d8c	-0.76632
42	0xbf076601	-0.5289002
43	0xbf0bb3d8	-0.54571295
44	0xbea29007	-0.3175051
45	0xbf36ce15	-0.71408206
46	0xbefee512	-0.49784142
47	0xbf297eb2	-0.66208947
48	0xbf168cc5	-0.5880855
49	0xbf05e7c3	-0.52306765
50	0xbf117acb	-0.5682799
51	0xbf49eb28	-0.78874445
52	0xbe952de5	-0.29136577
53	0xbe81a66d	-0.25322285
54	0xbf1f480a	-0.622193
55	0xbf3de102	-0.7417146
56	0xbf2914dd	-0.6604746
57	0xbf3d4bbb	-0.7394368
58	0xbf3b8113	-0.73243827
59	0xbe9d4eb7	-0.30724117
60	0xbee28b39	-0.44246843
61	0xbf6896a4	-0.9085486
62	0xbf495305	-0.786423
63	0xbf0d2a4f	-0.5514268

7.odefunc.conv1._layer.weight f4 [64, 65, 3, 3]
0	0xbc87fa2d	-0.016598785
1	0xbd60da37	-0.054895606
2	0xbd538f19	-0.05165014
3	0xbc8b374b	-0.01699414
4	0x3c4b3d9e	0.012404827
5	0xbc074d33	-0.008258152
6	0x3d0f586c	0.034996435
7	0x3b86e390	0.004116483
8	0x3d9b11c3	0.07571747
9	0x3c965d2c	0.018354975
10	0x3dbbb387	0.091651015
11	0x3dae78b3	0.08519115
12	0xbe0bb4d7	-0.13643204
13	0xbe074b49	-0.13212313
14	0xbde70c96	-0.112816975
15	0xbe806e6f	-0.25084254
16	0xbe4e74ef	-0.20161794
17	0x3cc94fab	0.024574121
18	0x3c284fa5	0.010272895
19	0xbd3927a4	-0.04520382
20	0xbb966c58	-0.0045905523
21	0x3e191b7e	0.14951894
22	0x3e08397d	0.1330318
23	0x3dcdc9f6	0.100482866
24	0xbe5a28b1	-0.21304585
25	0xbe582c4e	-0.21110651
26	0xbd33e932	-0.043923564
27	0x3dab677a	0.08369346
28	0x3c5e13fc	0.013554569
29	0x3daf1af6	0.08550064
30	0x3cc2df08	0.02378799
31	0x3e5142bb	0.20435612
32	0x3e0a3779	0.13497724
33	0xbb88ecf2	-0.0041786367
34	0x3cb0925a	0.02155416
35	0x3c914bed	0.0177364
36	0x3d8875cf	0.06663095
37	0xbbc8d9ad	-0.0061294646
38	0xbc7bcfe3	-0.015369388
39	0x3df532f5	0.1197261
40	0xbe80edc1	-0.25181392
41	0xbecf2dc5	-0.40464607
42	0xbe75afc3	-0.23992829
43	0xbea465a8	-0.32108808
44	0xbe431d51	-0.19054152
45	0xbc48abf5	-0.012248029
46	0xbdc389d4	-0.09547773
47	0xbde8f600	-0.11375046
48	0xbe3ddea9	-0.1854197
49	0xbe3604b3	-0.1777523
50	0xbd6be884	-0.05759479
51	0xbdede74f	-0.11616384
52	0xbdbe5f14	-0.092954785
53	0xbe5ce6ea	-0.21572462
54	0xbdbf2da3	-0.093348764
55	0xbde95c20	-0.113945246
56	0xbe1c2c53	-0.15251283
57	0x3d5b0285	0.0534692
58	0x3e04d798	0.12972867
59	0x3d397cf0	0.045285165
60	0x3dcd4654	0.1002318
61	0x3e069dc8	0.13146126
62	0x3e13bd55	0.14427693
63	0x3d9c8ede	0.07644437
64	0x3ccd5d80	0.025068998
65	0xba27e695	-0.0006404904
66	0xbe0e59c2	-0.13901427
67	0xbe08ccf9	-0.13359441
68	0xbc8863e5	-0.016649196
69	0xbd672fc3	-0.056442033
70	0xbd37dfbb	-0.0448911
71	0xbc0c2190	-0.008552924
72	0xbdbce87a	-0.09224029
73	0xbe007e3f	-0.12548159
74	0xbde2559e	-0.110514864
75	0x3dbbbe5b	0.09167167
76	0x3e869264	0.26283562
77	0x3e2567bc	0.16152853
78	0x3e2deba0	0.16984415
79	0x3daf2a4a	0.08552988
80	0x3e0eb33a	0.13935557
81	0xbe5321da	-0.20618382
82	0x38481e44	4.7711903e-05
83	0xbd2aa86b	-0.041664522
84	0x3e4a68bf	0.1976652
85	0x3e6eeb6a	0.23331991
86	0x3d942cd9	0.072351165
87	0x3e152913	0.1456645
88	0x3d000838	0.031257838
89	0xbc9acde5	-0.018897006
90	0xbd2d8fba	-0.042373396
91	0xbdd85952	-0.105639115
92	0xbe202082	-0.15637401
93	0xbdd1d828	-0.10246307
94	0xbde97da7	-0.114009194
95	0xbdae978d	-0.08525
96	0xbdfd32b5	-0.12363187
97	0xbcdb242c	-0.026750647
98	0x3c1e497f	0.0096610775
99	0xbc57ba73	-0.013167012
100	0xbd43fd10	-0.04784876
101	0xbe2df73c	-0.16988844
102	0x3b3d8fa8	0.0028924737
103	0xbd8a91fd	-0.06766126
104	0xbde30a79	-0.11085982
105	0x3d35f899	0.044426534
106	0xbb890537	-0.00418153
107	0xbd025ba0	-0.03182566
108	0x3e350ab8	0.1767987
109	0xbc36714b	-0.01113541
110	0xbda26f32	-0.07931365
111	0x3d68db07	0.056849506
112	0xbd474b14	-0.048655584
113	0x3d933874	0.07188502
114	0xbe4664aa	-0.19374338
115	0xbd3664fd	-0.044529904
116	0xbd4904a2	-0.049076684
117	0xbe93e102	-0.28882605
118	0xbe222d67	-0.15837632
119	0x3c1d85db	0.009614433
120	0xbe123a77	-0.14280115
121	0xbe3cb3f5	-0.18428023
122	0xbd8e6193	-0.069522046
123	0x3cb95c7d	0.02262711
124	0x3d2e027f	0.04248285
125	0xbcb042b5	-0.021516183
126	0x3e5abaf2	0.21360376
127	0x3d322e56	0.04350122
128	0xbe218597	-0.15773617
129	0x3d430dee	0.047620706
130	0xbe05b04e	-0.13055536
131	0xbd5994c6	-0.053120397
132	0xbcada294	-0.021195687
133	0xbd9c74c6	-0.0763946
134	0xbe1183bb	-0.14210407
135	0xbddb3264	-0.107029706
136	0xbd154a44	-0.03644778
137	0xbd3566a0	-0.044287324
138	0x3c2d5eab	0.010581653
139	0xbdd3f801	-0.10350037
140	0xbdb52c83	-0.088463806
141	0x3d865bcb	0.06560477
142	0xbd905b56	-0.07048671
143	0xbdba5e0d	-0.0909997
144	0xbcd073a7	-0.025445772
145	0xbcee47d9	-0.029086994
146	0xbcdd9a4e	-0.027051117
147	0xbd130738	-0.035895556
148	0xbd03e3f4	-0.032199815
149	0x3dd6fc71	0.10497368
150	0x3cb12eec	0.02162882
151	0x3dcb0171	0.09912384
152	0x3d6c1c5c	0.057644233
153	0x3d5852a1	0.052813176
154	0xbe650cce	-0.22368166
155	0xbdf384c3	-0.11890557
156	0x3ce13211	0.027489694
157	0x3e7d46f9	0.24734105
158	0x3e925cf0	0.2858653
159	0xbdbbf00f	-0.09176647
160	0x3d628d9d	0.055310834
161	0x3d2b0abb	0.04175828
162	0xbd65cb11	-0.056101862
163	0xbe2301d2	-0.15918663
164	0xbcd8095f	-0.026371656
165	0xbd4c9d6a	-0.04995481
166	0xbd6455da	-0.055745937
167	0xbda01ed0	-0.07818377
168	0x3d4d626b	0.050142687
169	0x3cadd26a	0.021218497
170	0x3d3469b8	0.044046134
171	0xbdb438ee	-0.08799921
172	0x3d1e83a7	0.038699772
173	0xbe023881	-0.12716867
174	0x3e5be1f3	0.21472912
175	0x3e61ec84	0.2206288
176	0x3aff9ba5	0.0019501342
177	0x3e33d6d9	0.17562427
178	0x3cfee102	0.031113151
179	0x3ce29c1a	0.027662326
180	0x3a9a913b	0.001179255
181	0xbbba8ca4	-0.005693035
182	0x3d153b98	0.036433786
183	0xbdb4f0c4	-0.08834985
184	0xbb980f2e	-0.0046404814
185	0xbcce6b80	-0.025197744
186	0x3dfd5118	0.12368983
187	0xbd77ad4f	-0.060468014
188	0xbe26a625	-0.16274317
189	0x3b793c4f	0.0038030331
190	0xbe1194cd	-0.14216919
191	0xbd1f4dc3	-0.03889252
192	0x3e639907	0.22226344
193	0x3e01b1ec	0.12665528
194	0x3d1d1e54	0.038359
195	0xbde9d2ba	-0.11417146
196	0xbd80fe9a	-0.062985614
197	0x3b0ec76b	0.0021786343
198	0x3d76d803	0.0602646
199	0x3ce285de	0.027651723
200	0xbd8c4520	-0.06849122
201	0x3d0cba59	0.034357402
202	0xbb995944	-0.0046798307
203	0x3d1f5897	0.038902845
204	0xbbfa6a73	-0.0076420843
205	0xbd2a5931	-0.041588966
206	0xbcbe316b	-0.023216924
207	0x3e845bfb	0.25851426
208	0x3de7cd60	0.11318469
209	0xbde089e0	-0.109637976
210	0xbd5b9e28	-0.053617626
211	0xbdb82557	-0.08991497
212	0xbc62e45e	-0.013848392
213	0xbea28391	-0.31741002
214	0xbe546254	-0.20740634
215	0xbe94330c	-0.28945196
216	0x3d317458	0.043323845
217	0xbdb00d85	-0.08596329
218	0xbd8ce7f6	-0.068801805
219	0x3b81e0d2	0.0039635682
220	0x3d98b49d	0.07456324
221	0xbc9b2b83	-0.018941646
222	0x3d0b7dff	0.034055706
223	0xbcca069a	-0.024661351
224	0xbd2b7134	-0.041856006
225	0x3d55dbff	0.052211758
226	0x3caef7ba	0.02135836
227	0x3e05a433	0.13050918
228	0xbddb53a3	-0.10709312
229	0xbcccf439	-0.025018798
230	0xbe168f50	-0.14703107
231	0xbeaebea6	-0.34129828
232	0xbe5348f4	-0.20633298
233	0xbd18722a	-0.03721825
234	0xbc38fce1	-0.01129076
235	0xbe001770	-0.1250894
236	0xbe3387e1	-0.17532302
237	0x3e025b32	0.12730101
238	0x3e16267e	0.14663121
239	0x3db093a8	0.08621913
240	0xbddaa2dd	-0.10675595
241	0xbd33917b	-0.043839913
242	0x3de611c3	0.112338565
243	0x3dd4c31c	0.10388777
244	0xbd485dae	-0.048917465
245	0xbb6d46e8	-0.0036205593
246	0xbd05f3e0	-0.03270328
247	0xbea21eb5	-0.31664053
248	0xbd59b442	-0.053150423
249	0xbea73961	-0.32660964
250	0xbe4ae215	-0.19812806
251	0xbd0d2bb0	-0.03446549
252	0xbdaf45c8	-0.085582316
253	0xbe4b605a	-0.19860974
254	0xbd5e84c1	-0.054325823
255	0x3d824ce8	0.06362325

7.odefunc.conv1._layer.bias f4 [64]
0	0xbe0119f0	-0.1260755
1	0x3e087f74	0.1332987
2	0x3d8d1437	0.06888621
3	0xbdf49623	-0.11942699
4	0xbdc8ae3e	-0.09798859
5	0x3d995af9	0.07488055
6	0xbd2b7970	-0.04186386
7	0x3d71449c	0.05890332
8	0xbe0fef61	-0.1405616
9	0x3df3bae9	0.11900885
10	0x3d2ef7f2	0.042716928
11	0xbc5428be	-0.012949167
12	0x3d1b27f3	0.037879895
13	0xbd07ee08	-0.03318599
14	0x3b32588c	0.0027213423
15	0xbcdcb9b1	-0.026944013
16	0x3c95a475	0.018266896
17	0xbca3d025	-0.019996712
18	0xbd6c27da	-0.057655193
19	0x3d5525b1	0.0520379
20	0xbdeb2986	-0.11482529
21	0x3e22d412	0.15901211
22	0xbdaab16d	-0.083346225
23	0x3c632b46	0.013865298
24	0x3cee5d47	0.029097212
25	0xbcaee282	-0.021348242
26	0x3d228b04	0.039683357
27	0xbd249f82	-0.04019118
28	0x3d80cc6e	0.06288992
29	0xbd4079a4	-0.046991006
30	0x3bb3d549	0.005488072
31	0x3c491d9d	0.012275127
32	0xbd899982	-0.067187324
33	0x3cc41b8b	0.023938915
34	0xbe813c6a	-0.25241405
35	0x3e61eb7f	0.22062491
36	0x3e013124	0.12616402
37	0xbe25be69	-0.16185917
38	0x396a1c7a	0.00022326587
39	0x3d570f7b	0.052504998
40	0xbc32d575	-0.01091515
41	0xbd691fbb	-0.056915026
42	0x3d3ada46	0.045618318
43	0xbd77a8fd	-0.060463894
44	0x3d3aa3e0	0.04556644
45	0xbc279ba7	-0.0102299815
46	0x3d4060e9	0.04696742
47	0xbd60d103	-0.05488683
48	0xbd04010b	-0.032227557
49	0x3bbf6406	0.005840781
50	0x3a87ed2b	0.0010370364
51	0x3d996724	0.07490376
52	0xbb8ef9ec	-0.004363289
53	0x3d1ee1a1	0.038789395
54	0x3ce5fb0b	0.028073808
55	0xbd8c6184	-0.06854537
56	0x3d5ce728	0.053931385
57	0xbc812fbe	-0.015769836
58	0x3ded2ec9	0.11581189
59	0xbdd23d14	-0.10265556
60	0x3d061fa2	0.03274501
61	0xbc901d33	-0.017592048
62	0x3ce27e54	0.027648129
63	0xbc5868cc	-0.013208579

7.odefunc.norm2.weight f4 [64]
0	0x3f97fc4c	1.187387
1	0x3f966092	1.1748221
2	0x3f66e60e	0.90194786
3	0x3fb1928a	1.3872845
4	0x3f5cce0e	0.86251915
5	0x3f742186	0.9536365
6	0x3fa3ec6a	1.2806523
7	0x3f7d1e48	0.9887433
8	0x3f8ded5d	1.1088063
9	0x3fa38d5c	1.2777514
10	0x3f7926b9	0.9732471
11	0x3f916d4e	1.1361482
12	0x3f96d785	1.1784521
13	0x3f91d54e	1.139322
14	0x3f8bb04b	1.0913175
15	0x3f77df03	0.96824664
16	0x3f9185ec	1.1368995
17	0x3f88730b	1.0660108
18	0x3f886fc3	1.0659107
19	0x3f91def9	1.1396171
20	0x3f864bb5	1.0491854
21	0x3fa9237f	1.3213958
22	0x3f983111	1.1889974
23	0x3f8c4046	1.0957115
24	0x3f82107a	1.0161278
25	0x3f84f004	1.0385747
26	0x3f5695e3	0.8382246
27	0x3f991460	1.1959343
28	0x3f8aa045	1.083016
29	0x3f8e2443	1.1104816
30	0x3f956e21	1.1674234
31	0x3f917d28	1.136632
32	0x3f8fff0a	1.1249707
33	0x3fb116f4	1.383513
34	0x3f88a7cf	1.0676211
35	0x3fcd1296	1.6021297
36	0x3fa7fab4	1.3123384
37	0x3f9e9a94	1.2390924
38	0x3f7a618b	0.9780509
39	0x3f4b42ab	0.793986
40	0x3f738542	0.9512521
41	0x3fa51bb5	1.289908
42	0x3f9f116e	1.2427194
43	0x3f62a045	0.885258
44	0x3f523020	0.8210468
45	0x3f88d4c2	1.0689929
46	0x3f81bfc5	1.0136648
47	0x3f796806	0.9742435
48	0x3f318ab3	0.69352263
49	0x3f94713c	1.1597056
50	0x3f873409	1.0562755
51	0x3f852fc2	1.04052
52	0x3f709f0b	0.9399268
53	0x3f8233bc	1.0172038
54	0x3f9166f4	1.1359544
55	0x3f83ec32	1.0306456
56	0x3fb5395a	1.4158127
57	0x3f9cb5d9	1.2242996
58	0x3fa33ca4	1.2752881
59	0x3f833280	1.0249786
60	0x3f9adce3	1.2098659
61	0x3f43af4f	0.76439375
62	0x3f94e239	1.1631538
63	0x3f92dfae	1.1474512

7.odefunc.norm2.bias f4 [64]
0	0xbf0db289	-0.5535055
1	0xbf8c4fde	-1.0961874
2	0xbf89f200	-1.0776978
3	0xbf13a989	-0.57680565
4	0xbf5ce281	-0.8628312
5	0xbf74a67c	-0.95566535
6	0xbf43ac4a	-0.7643477
7	0xbf9068de	-1.1282003
8	0xbed9ecf8	-0.42563605
9	0xbfac79a1	-1.3474618
10	0xbf88421d	-1.0645176
11	0xbf8d8210	-1.1055317
12	0xbf8ca6ca	-1.09884
13	0xbea2cf8d	-0.31798974
14	0xbf2bbe7d	-0.6708754
15	0xbf7762ff	-0.9663543
16	0xbf2575b6	-0.6463274
17	0xbf56e10c	-0.83937144
18	0xbf5a7cd6	-0.85346735
19	0xbf78ea01	-0.9723206
20	0xbede6295	-0.43434587
21	0xbf98ba1b	-1.1931795
22	0xbeb8eab3	-0.3611656
23	0xbf8b6caa	-1.0892537
24	0xbf9e3acf	-1.2361697
25	0xbf9199e1	-1.1375085
26	0xbf12b40e	-0.5730599
27	0xbf35e8b4	-0.710582
28	0xbf584d1c	-0.8449266
29	0xbf4653fc	-0.774719
30	0xbf9c1374	-1.2193437
31	0xbedc3ae9	-0.43013695
32	0xbf56d12e	-0.8391293
33	0xbf9c01ca	-1.2188046
34	0xbf3bb063	-0.7331602
35	0xbf938c13	-1.1527122
36	0xbf957979	-1.1677696
37	0xbf13e548	-0.5777173
38	0xbea67783	-0.32513055
39	0xbf5c5ecb	-0.8608214
40	0xbf812835	-1.0090395
41	0xbf77a2cb	-0.9673278
42	0xbfa9eede	-1.3276021
43	0xbeeacfdf	-0.45861718
44	0xbf95e76d	-1.171125
45	0xbf51383f	-0.8172645
46	0xbf90b275	-1.1304461
47	0xbed80400	-0.42190552
48	0xbf75f394	-0.96074796
49	0xbf00e241	-0.50345236
50	0xbf7cd20c	-0.98758006
51	0xbefe1a35	-0.4962937
52	0xbf48e7ea	-0.7847887
53	0xbf6548a1	-0.8956395
54	0xbf2ec3ee	-0.68267715
55	0xbf851d9c	-1.0399661
56	0xbf73d530	-0.95247173
57	0xbe988805	-0.29791275
58	0xbf719593	-0.9436886
59	0xbf88d105	-1.0688788
60	0xbf34562f	-0.70444006
61	0xbf45f2d8	-0.77323675
62	0xbfa13b16	-1.2596157
63	0xbf070e78	-0.5275645
